…
 168, 169, 170, 171, 172, 173, 174, 175, 176, 177, 178, 179, 180, 181, 182, 183, 184, 185, 186, 187, 188, 189, 190, 191, 192, 193, 194, 195, 196, 197, 198, 199, 200, 201, 202, 203, 204, 205, 206, 207, 208, 209, 210, 211, 212, 213, 214, 215]
Number of bands : 216


MODEL'S HYPERPARAMETERS
Structure : 
==========================================================================================
Layer (type:depth-idx)                   Output Shape              Param #
==========================================================================================
CNN_2                                    [48, 2]                   --
├─Conv2d: 1-1                            [48, 8, 198, 198]         84,680
├─ReLU: 1-2                              [48, 8, 198, 198]         --
├─MaxPool2d: 1-3                         [48, 8, 66, 66]           --
├─Conv2d: 1-4                            [48, 16, 64, 64]          3,216
├─ReLU: 1-5                              [48, 16, 64, 64]          --
├─MaxPool2d: 1-6                         [48, 16, 32, 32]          --
├─Conv2d: 1-7                            [48, 32, 32, 32]          4,640
├─ReLU: 1-8                              [48, 32, 32, 32]          --
├─MaxPool2d: 1-9                         [48, 32, 16, 16]          --
├─Conv2d: 1-10                           [48, 64, 16, 16]          18,496
├─ReLU: 1-11                             [48, 64, 16, 16]          --
├─MaxPool2d: 1-12                        [48, 64, 8, 8]            --
├─Conv2d: 1-13                           [48, 128, 8, 8]           73,856
├─ReLU: 1-14                             [48, 128, 8, 8]           --
├─MaxPool2d: 1-15                        [48, 128, 4, 4]           --
├─Flatten: 1-16                          [48, 2048]                --
├─Linear: 1-17                           [48, 100]                 204,900
├─Dropout: 1-18                          [48, 100]                 --
├─ReLU: 1-19                             [48, 100]                 --
├─Linear: 1-20                           [48, 20]                  2,020
├─ReLU: 1-21                             [48, 20]                  --
├─Linear: 1-22                           [48, 2]                   42
├─Softmax: 1-23                          [48, 2]                   --
==========================================================================================
Total params: 391,850
Trainable params: 391,850
Non-trainable params: 0
Total mult-adds (G): 160.67
==========================================================================================
Input size (MB): 1658.88
Forward/backward pass size (MB): 167.67
Params size (MB): 1.57
Estimated Total Size (MB): 1828.11
…
