…
 168, 169, 170, 171, 172, 173, 174, 175, 176, 177, 178, 179, 180, 181, 182, 183, 184, 185, 186, 187, 188, 189, 190, 191, 192, 193, 194, 195, 196, 197, 198, 199, 200, 201, 202, 203, 204, 205, 206, 207, 208, 209, 210, 211, 212, 213, 214, 215]
Number of bands : 216


MODEL'S HYPERPARAMETERS
Structure : 
==========================================================================================
Layer (type:depth-idx)                   Output Shape              Param #
==========================================================================================
CNN_3                                    [48, 2]                   --
├─Conv2d: 1-1                            [48, 32, 198, 198]        338,720
├─ReLU: 1-2                              [48, 32, 198, 198]        --
├─MaxPool2d: 1-3                         [48, 32, 66, 66]          --
├─Conv2d: 1-4                            [48, 64, 64, 64]          51,264
├─ReLU: 1-5                              [48, 64, 64, 64]          --
├─MaxPool2d: 1-6                         [48, 64, 32, 32]          --
├─Conv2d: 1-7                            [48, 128, 32, 32]         73,856
├─ReLU: 1-8                              [48, 128, 32, 32]         --
├─MaxPool2d: 1-9                         [48, 128, 16, 16]         --
├─Conv2d: 1-10                           [48, 256, 16, 16]         295,168
├─ReLU: 1-11                             [48, 256, 16, 16]         --
├─MaxPool2d: 1-12                        [48, 256, 8, 8]           --
├─Conv2d: 1-13                           [48, 256, 8, 8]           590,080
├─ReLU: 1-14                             [48, 256, 8, 8]           --
├─MaxPool2d: 1-15                        [48, 256, 4, 4]           --
├─Flatten: 1-16                          [48, 4096]                --
├─Linear: 1-17                           [48, 100]                 409,700
├─Dropout: 1-18                          [48, 100]                 --
├─ReLU: 1-19                             [48, 100]                 --
├─Linear: 1-20                           [48, 30]                  3,030
├─ReLU: 1-21                             [48, 30]                  --
├─Linear: 1-22                           [48, 2]                   62
├─Softmax: 1-23                          [48, 2]                   --
==========================================================================================
Total params: 1,761,880
Trainable params: 1,761,880
Non-trainable params: 0
Total mult-adds (G): 656.57
==========================================================================================
Input size (MB): 1658.88
Forward/backward pass size (MB): 664.24
Params size (MB): 7.05
Estimated Total Size (MB): 2330.17
…
