…
 168, 169, 170, 171, 172, 173, 174, 175, 176, 177, 178, 179, 180, 181, 182, 183, 184, 185, 186, 187, 188, 189, 190, 191, 192, 193, 194, 195, 196, 197, 198, 199, 200, 201, 202, 203, 204, 205, 206, 207, 208, 209, 210, 211, 212, 213, 214, 215]
Number of bands : 216


MODEL'S HYPERPARAMETERS
Structure : 
==========================================================================================
Layer (type:depth-idx)                   Output Shape              Param #
==========================================================================================
CNN_1                                    [32, 2]                   --
├─Conv2d: 1-1                            [32, 10, 200, 200]        105,850
├─ReLU: 1-2                              [32, 10, 200, 200]        --
├─MaxPool2d: 1-3                         [32, 10, 100, 100]        --
├─Conv2d: 1-4                            [32, 15, 100, 100]        3,765
├─ReLU: 1-5                              [32, 15, 100, 100]        --
├─MaxPool2d: 1-6                         [32, 15, 50, 50]          --
├─Conv2d: 1-7                            [32, 25, 50, 50]          3,400
├─ReLU: 1-8                              [32, 25, 50, 50]          --
├─MaxPool2d: 1-9                         [32, 25, 25, 25]          --
├─Flatten: 1-10                          [32, 15625]               --
├─Linear: 1-11                           [32, 10]                  156,260
├─Dropout: 1-12                          [32, 10]                  --
├─ReLU: 1-13                             [32, 10]                  --
├─Linear: 1-14                           [32, 2]                   22
├─Softmax: 1-15                          [32, 2]                   --
==========================================================================================
Total params: 269,297
Trainable params: 269,297
Non-trainable params: 0
Total mult-adds (G): 136.97
==========================================================================================
Input size (MB): 1105.92
Forward/backward pass size (MB): 156.80
Params size (MB): 1.08
Estimated Total Size (MB): 1263.80
…
